…
"source":["%cd /content/drive/MyDrive/NLP/nlp_text_summarization/SummaRuNNer"]},{"cell_type":"code","execution_count":null,"metadata":{"colab":{"base_uri":"https://localhost:8080/"},"id":"_zk7Dk9Ve-a3","executionInfo":{"status":"ok","timestamp":1653726974300,"user_tz":-480,"elapsed":1857116,"user":{"displayName":"丁一凡","userId":"12694145791535851103"}},"outputId":"1792c23f-1cc5-44cd-c7d1-847206407d22"},"outputs":[{"output_type":"stream","name":"stdout","text":["using gpu\n","2022-05-28 08:05:26,079 [INFO] Loading vocab,train and val dataset.Wait a second,please\n","RNN_RNN(\n","  (abs_pos_embed): Embedding(100, 50)\n","  (rel_pos_embed): Embedding(10, 50)\n","  (embed): Embedding(94083, 100, padding_idx=0)\n","  (word_RNN): GRU(100, 200, batch_first=True, bidirectional=True)\n","  (sent_RNN): GRU(400, 200, batch_first=True, bidirectional=True)\n","  (fc): Linear(in_features=400, out_features=400, bias=True)\n","  (content): Linear(in_features=400, out_features=1, bias=False)\n","  (salience): Bilinear(in1_features=400, in2_features=400, out_features=1, bias=False)\n","  (novelty): Bilinear(in1_features=400, in2_features=400, out_features=1, bias=False)\n","  (abs_pos): Linear(in_features=50, out_features=1, bias=False)\n","  (rel_pos): Linear(in_features=50, out_features=1, bias=False)\n",")\n","#Params: 11.0M\n","/usr/local/lib/python3.7/dist-packages/torch/nn/functional.py:1933: UserWarning: nn.functional.tanh is deprecated. Use torch.tanh instead.\n","  warnings.warn(\"nn.functional.tanh is deprecated. Use torch.tanh instead.\")\n","/usr/local/lib/python3.7/dist-packages/torch/nn/functional.py:1944: UserWarning: nn.functional.sigmoi
…
in.py -device 0 -batch_size 32 -model RNN_RNN -seed 0 -save_dir checkpoints/"]},{"cell_type":"code","execution_count":null,"metadata":{"colab":{"base_uri":"https://localhost:8080/"},"executionInfo":{"elapsed":1046615,"status":"ok","timestamp":1653731113380,"user":{"displayName":"丁一凡","userId":"12694145791535851103"},"user_tz":-480},"id":"n0__8iQBiIY5","outputId":"c8b2137f-9423-4ca7-b99a-0f8454e4d94e"},"outputs":[{"output_type":"stream","name":"stdout","text":["using gpu\n","2022-05-28 09:27:55,411 [INFO] Loading vocab,train and val dataset.Wait a second,please\n","CNN_RNN(\n","  (abs_pos_embed): Embedding(100, 50)\n","  (rel_pos_embed): Embedding(10, 50)\n","  (embed): Embedding(94083, 100, padding_idx=0)\n","  (convs): ModuleList(\n","    (0): Sequential(\n","      (0): Conv1d(100, 100, kernel_size=(3,), stride=(1,))\n","      (1): BatchNorm1d(100, eps=1e-05, momentum=0.1, affine=True, track_running_stats=True)\n","      (2): LeakyReLU(negative_slope=0.01, inplace=True)\n","      (3): Conv1d(100, 100, kernel_size=(3,), stride=(1,))\n","      (4): BatchNorm1d(100, eps=1e-05, momentum=0.1, affine=True, track_running_stats=True)\n","      (5): LeakyReLU(negative_slope=0.01, inplace=True)\n","    )\n","    (1): Sequential(\n","      (0): Conv1d(100, 100, kernel_size=(4,), stride=(1,))\n","      (1): BatchNorm1d(100, eps=1e-05, momentum=0.1, affine=True, track_running_stats=True)\n","      (2): LeakyReLU(negative_slope=0.01, inplace=True)\n","      (3): Conv1d(100, 100, kernel_size=(4,), stride=(1,))\n","      (4): BatchNorm1d(100, eps=1e-05, momentum=0.1, affine=True, track_running_stats=True)\n","      (5): LeakyReLU(negative_slope=0.01, inplace=True)\n","    )\n","    (2): Sequential(\n","      (0): Conv1d(100, 100, kernel_size=(5,), stride=(1,))\n","      (1): BatchNorm1d(100, eps=1e-05, momentum=0.1, affine=True, track_running_stats=True)\n","      (2): LeakyReLU(negative_slope=0.01, inplace=True)\n","      (3): Conv1d(100, 100, kernel_size=(5,), stride=(1,))\n","      (4): BatchNorm1d(100, eps=1e-05, momentum=0.1, affine=True, track_running_stats=True)\n","      (5): LeakyReLU(negative_slope=0.01, inplace=True)\n","    )\n","  )\n","  (sent_RNN): GRU(300, 200, batch_first=True, bidirectional=True)\n","  (fc): Sequential(\n","    (0): Linear(in_features=400, out_features=400, bias=True)\n","    (1): BatchNorm1d(400, eps=1e-05, momentum=0.1, affine=True, track_running_stats=True)\n","    (2): Tanh()\n","  )\n","  (content): Linear(in_features=400, out_features=1, bias=False)\n","  (salience): Bilinear(in1_features=400, in2_features=400, out_features=1, bias=False)\n","  (novelty): Bilinear(in1_features=400, in2_features=400, out_features=1, bias=False)\n","  (abs_pos): Linear(in_features=50, out_features=1, bias=False)\n","  (rel_pos): Linear(in_features=50, out_features=1, bias=False)\n",")\n","#Params: 10.7M\n","/usr/local/lib/python3.7/dist-packages/torch/nn/functional.py:1933: UserWarning: nn.functional.tanh is deprecated. Use torch.tanh instead.\n","  warnings.warn(\"nn.functional.tanh is deprecated. Use torch.tanh instead.\")\n","/usr/local/lib/python3.7/dist-packages/torch/nn/functional.py:1944: UserWarning: nn.functional.sigmoi
…
in.py -device 0 -batch_size 32 -model CNN_RNN -seed 0 -save_dir checkpoints/"]},{"cell_type":"code","execution_count":null,"metadata":{"colab":{"base_uri":"https://localhost:8080/"},"executionInfo":{"elapsed":1247130,"status":"ok","timestamp":1653733324674,"user":{"displayName":"丁一凡","userId":"12694145791535851103"},"user_tz":-480},"id":"JNkpE46diIuD","outputId":"f9a31814-2f70-4708-d7dc-e052dad8ba80"},"outputs":[{"output_type":"stream","name":"stdout","text":["using gpu\n","2022-05-28 10:01:24,358 [INFO] Loading vocab,train and val dataset.Wait a second,please\n","AttnRNN(\n","  (abs_pos_embed): Embedding(100, 50)\n","  (rel_pos_embed): Embedding(10, 50)\n","  (embed): Embedding(94083, 100, padding_idx=0)\n","  (attn): Attention()\n","  (word_RNN): GRU(100, 200, batch_first=True, bidirectional=True)\n","  (sent_RNN): GRU(400, 200, batch_first=True, bidirectional=True)\n","  (fc): Linear(in_features=400, out_features=400, bias=True)\n","  (content): Linear(in_features=400, out_features=1, bias=False)\n","  (salience): Bilinear(in1_features=400, in2_features=400, out_features=1, bias=False)\n","  (novelty): Bilinear(in1_features=400, in2_features=400, out_features=1, bias=False)\n","  (abs_pos): Linear(in_features=50, out_features=1, bias=False)\n","  (rel_pos): Linear(in_features=50, out_features=1, bias=False)\n",")\n","#Params: 11.0M\n","/content/drive/MyDrive/NLP/nlp_text_summarization/SummaRuNNer/models/Attention.py:56: UserWarning: masked_fill_ received a mask with dtype torch.uint8, this behavior is now deprecated,please use a mask with dtype torch.bool instead. (Triggered internally at  ../aten/src/ATen/native/cuda/Indexing.cu:967.)\n","  attn.data.maske
…
