Training mle: no, Training rl: no, mle weight: 1.00, rl weight: 0.00
intra_encoder: True intra_decoder: True
finish intializing
Model(
  (encoder): Encoder(
    (lstm): LSTM(256, 512, batch_first=True, bidirectional=True)
    (reduce_h): Linear(in_features=1024, out_features=512, bias=True)
    (reduce_c): Linear(in_features=1024, out_features=512, bias=True)
  )
  (decoder): Decoder(
    (enc_attention): encoder_attention(
      (W_h): Linear(in_features=1024, out_features=1024, bias=False)
      (W_s): Linear(in_features=1024, out_features=1024, bias=True)
      (v): Linear(in_features=1024, out_features=1, bias=False)
    )
    (dec_attention): decoder_attention(
      (W_prev): Linear(in_features=512, out_features=512, bias=False)
      (W_s): Linear(in_features=512, out_features=512, bias=True)
      (v): Linear(in_features=512, out_features=1, bias=False)
    )
    (x_context): Linear(in_features=1280, out_features=256, bias=True)
    (lstm): LSTMCell(256, 512)
    (p_gen_linear): Linear(in_features=2816, out_features=1, bias=True)
    (V): Linear(in_features=2048, out_features=512, bias=True)
    (V1): Linear(in_features=512, out_features=50000, bias=True)
  )
  (embeds): Embedding(50000, 256)
)


total number of parameters: 48234833


iter: 1000 mle_loss: 7.821 reward: 0.0000
['光棍节 变身 网购 狂欢节 " 双十 一 " 三招 教 你 真正 省钱', '用 毛主席 语录 当 手纸 知青 被 打成 反革命 引 血案', '职场 ： 哪些 证书 值得 考 ？', '日系 家电 三 巨头 齐巨亏 松下 股价 创 37 年 新低', '展览馆 搬进 商场 内 ， 购物 看展 两不误', '排名 下滑 + 巨额 赎回 王亚伟遇 成名 来 最 窘境', '各地 跟进 国家 集成电路 大 基金', '央行 ： 加快 推进 利率 市场化 建立 存款 保险制度', '美银 认缴 166.5 亿美元 天价 罚单', '中医药 为何 逐渐 被 边缘化', '曝 超市 “ 后厨 ” ： 过期
…
